…
Epoch 6, global step 16128: 'val/loss' reached 0.05287 (best 0.05287), saving model to '/home/zhteoh/727-optimize-encoder-new-data-gen/case_studies/optimize_encoder_727/output/encoder/sdss-pretrain-0.06/checkpoints/epoch=6-val_loss=0.053.ckpt' as top 1
Epoch 7, global step 18432: 'val/loss' was not in top 1
Epoch 8, global step 20736: 'val/loss' was not in top 1
Epoch 9, global step 23040: 'val/loss' was not in top 1
Epoch 10, global step 25344: 'val/loss' was not in top 1
Epoch 11, global step 27648: 'val/loss' was not in top 1
Global seed set to 16433

                 from  n    params  module                                  arguments                     
  0                -1  1      3328  yolov5.models.common.Conv               [2, 64, 5, 1]                 
  1                -1  3     12672  yolov5.models.common.Conv               [64, 64, 1, 1]                
  2                -1  1     73984  yolov5.models.common.Conv               [64, 128, 3, 2]               
  3                -1  1    147712  yolov5.models.common.Conv               [128, 128, 3, 1]              
  4                -1  1    295424  yolov5.models.common.Conv               [128, 256, 3, 2]              
  5                -1  6   1118208  yolov5.models.common.C3                 [256, 256, 6]                 
  6                -1  1   1180672  yolov5.models.common.Conv               [256, 512, 3, 2]              
  7                -1  9   6433792  yolov5.models.common.C3                 [512, 512, 9]                 
  8                -1  1   4720640  yolov5.models.common.Conv               [512, 1024, 3, 2]             
  9                -1  3   9971712  yolov5.models.common.C3                 [1024, 1024, 3]               
 10                -1  1   2624512  yolov5.models.common.SPPF               [1024, 1024, 5]               
 11                -1  1    525312  yolov5.models.common.Conv               [1024, 512, 1, 1]             
 12                -1  1         0  torch.nn.modules.upsampling.Upsample    [None, 2, 'nearest']          
 13           [-1, 6]  1         0  yolov5.models.common.Concat             [1]                           
 14                -1  3   2757632  yolov5.models.common.C3                 [1024, 512, 3, False]         
 15                -1  1    131584  yolov5.models.common.Conv               [512, 256, 1, 1]              
 16                -1  1         0  torch.nn.modules.upsampling.Upsample    [None, 2, 'nearest']          
 17        [-1, 4, 5]  1         0  yolov5.models.common.Concat             [1]                           
 18                -1  3    756224  yolov5.models.common.C3                 [768, 256, 3, False]          
 19              [17]  1     16918  yolov5.models.yolo.Detect               [17, [[4, 4]], [768]]         
Model summary: 275 layers, 30770326 parameters, 30770326 gradients, 363.2 GFLOPs

GPU available: True (cuda), used: True
TPU available: False, using: 0 TPU cores
IPU available: False, using: 0 IPUs
HPU available: False, using: 0 HPUs
LOCAL_RANK: 0 - CUDA_VISIBLE_DEVICES: [3]
…
