…
Epoch 9, global step 184320: 'val/loss' was not in top 1

[2023-05-25 11:58:46,278][HYDRA] Launching 24 jobs locally
[2023-05-25 11:58:46,278][HYDRA] 	#0 : training.seed=17508 +tune_bs={batch_size:8,train_n_batches:18432}
Global seed set to 17508
Reading cached files (training set)...
done (took 122.05012941360474 seconds).
Reading cached files (validation set)...
done (took 13.336366891860962 seconds).
Reading cached files (test set)...
done (took 9.5367431640625e-07 seconds).

                 from  n    params  module                                  arguments                     
  0                -1  1      3328  yolov5.models.common.Conv               [2, 64, 5, 1]                 
  1                -1  3     12672  yolov5.models.common.Conv               [64, 64, 1, 1]                
  2                -1  1     73984  yolov5.models.common.Conv               [64, 128, 3, 2]               
  3                -1  1    147712  yolov5.models.common.Conv               [128, 128, 3, 1]              
  4                -1  1    295424  yolov5.models.common.Conv               [128, 256, 3, 2]              
  5                -1  6   1118208  yolov5.models.common.C3                 [256, 256, 6]                 
  6                -1  1   1180672  yolov5.models.common.Conv               [256, 512, 3, 2]              
  7                -1  9   6433792  yolov5.models.common.C3                 [512, 512, 9]                 
  8                -1  1   4720640  yolov5.models.common.Conv               [512, 1024, 3, 2]             
  9                -1  3   9971712  yolov5.models.common.C3                 [1024, 1024, 3]               
 10                -1  1   2624512  yolov5.models.common.SPPF               [1024, 1024, 5]               
 11                -1  1    525312  yolov5.models.common.Conv               [1024, 512, 1, 1]             
 12                -1  1         0  torch.nn.modules.upsampling.Upsample    [None, 2, 'nearest']          
 13           [-1, 6]  1         0  yolov5.models.common.Concat             [1]                           
 14                -1  3   2757632  yolov5.models.common.C3                 [1024, 512, 3, False]         
 15                -1  1    131584  yolov5.models.common.Conv               [512, 256, 1, 1]              
 16                -1  1         0  torch.nn.modules.upsampling.Upsample    [None, 2, 'nearest']          
 17        [-1, 4, 5]  1         0  yolov5.models.common.Concat             [1]                           
 18                -1  3    756224  yolov5.models.common.C3                 [768, 256, 3, False]          
 19              [17]  1     16918  yolov5.models.yolo.Detect               [17, [[4, 4]], [768]]         
Model summary: 275 layers, 30770326 parameters, 30770326 gradients, 363.2 GFLOPs

GPU available: True (cuda), used: True
TPU available: False, using: 0 TPU cores
IPU available: False, using: 0 IPUs
HPU available: False, using: 0 HPUs
LOCAL_RANK: 0 - CUDA_VISIBLE_DEVICES: [2]
…
